…
        },
        "id": "pwlcx4nz4Cq4",
        "outputId": "558ade80-8f3d-4fae-9f6f-ba54300b3f5b"
      },
      "source": [
        "model.summary()"
      ],
      "execution_count": 13,
      "outputs": [
        {
          "output_type": "stream",
          "text": [
            "Model: \"sequential_2\"\n",
            "_________________________________________________________________\n",
            "Layer (type)                 Output Shape              Param #   \n",
            "=================================================================\n",
            "conv2d_4 (Conv2D)            (None, 222, 222, 32)      896       \n",
            "_________________________________________________________________\n",
            "conv2d_5 (Conv2D)            (None, 220, 220, 64)      18496     \n",
            "_________________________________________________________________\n",
            "max_pooling2d (MaxPooling2D) (None, 110, 110, 64)      0         \n",
            "_________________________________________________________________\n",
            "dropout (Dropout)            (None, 110, 110, 64)      0         \n",
            "_________________________________________________________________\n",
            "conv2d_6 (Conv2D)            (None, 108, 108, 64)      36928     \n",
            "_________________________________________________________________\n",
            "max_pooling2d_1 (MaxPooling2 (None, 54, 54, 64)        0         \n",
            "_________________________________________________________________\n",
            "dropout_1 (Dropout)          (None, 54, 54, 64)        0         \n",
            "_________________________________________________________________\n",
            "conv2d_7 (Conv2D)            (None, 52, 52, 64)        36928     \n",
            "_________________________________________________________________\n",
            "max_pooling2d_2 (MaxPooling2 (None, 26, 26, 64)        0         \n",
            "_________________________________________________________________\n",
            "dropout_2 (Dropout)          (None, 26, 26, 64)        0         \n",
            "_________________________________________________________________\n",
            "flatten (Flatten)            (None, 43264)             0         \n",
            "_________________________________________________________________\n",
            "dense (Dense)                (None, 64)                2768960   \n",
            "_________________________________________________________________\n",
            "dropout_3 (Dropout)          (None, 64)                0         \n",
            "_________________________________________________________________\n",
            "dense_1 (Dense)              (None, 1)                 65        \n",
            "=================================================================\n",
            "Total params: 2,862,273\n",
            "Trainable params: 2,862,273\n",
            "Non-trainable params: 0\n",
            "_________________________________________________________________\n"
          ],
          "name": "stdout"
        }
      ]
    },
    {
      "cell_type": "code",
…
